…
.dense.weight	model.swin.encoder.layers.3.blocks.1.output.dense.bias	model.swin.layernorm.weight	model.swin.layernorm.bias	predictor.weight	predictor.bias
using cuda

------- Experiment Summary --------
id: 0
dataset: CIFAR100 	batch size: 32 	lr: 0.0001
num train batch: 1563 	num validation batch: 313 	num test batch: 313
finetune method: all
param count: 86845724 86845724
wrapper2D(
  (model): SwinForImageClassification(
    (swin): SwinModel(
      (embeddings): Embeddings2D(
        (resize): Resize(size=(224, 224), interpolation=bilinear, max_size=None, antialias=warn)
        (projection): Conv2d(3, 128, kernel_size=(4, 4), stride=(4, 4))
        (norm): LayerNorm((128,), eps=1e-05, elementwise_affine=True)
      )
      (encoder): SwinEncoder(
        (layers): ModuleList(
          (0): SwinStage(
            (blocks): ModuleList(
              (0-1): 2 x SwinLayer(
                (layernorm_before): LayerNorm((128,), eps=1e-05, elementwise_affine=True)
                (attention): SwinAttention(
                  (self): SwinSelfAttention(
                    (query): Linear(in_features=128, out_features=128, bias=True)
                    (key): Linear(in_features=128, out_features=128, bias=True)
                    (value): Linear(in_features=128, out_features=128, bias=True)
                    (dropout): Dropout(p=0.0, inplace=False)
                  )
                  (output): SwinSelfOutput(
                    (dense): Linear(in_features=128, out_features=128, bias=True)
                    (dropout): Dropout(p=0.0, inplace=False)
                  )
                )
                (drop_path): SwinDropPath(p=0.1)
                (layernorm_after): LayerNorm((128,), eps=1e-05, elementwise_affine=True)
                (intermediate): SwinIntermediate(
                  (dense): Linear(in_features=128, out_features=512, bias=True)
                  (intermediate_act_fn): GELUActivation()
                )
                (output): SwinOutput(
                  (dense): Linear(in_features=512, out_features=128, bias=True)
                  (dropout): Dropout(p=0.0, inplace=False)
                )
              )
            )
            (downsample): SwinPatchMerging(
              (reduction): Linear(in_features=512, out_features=256, bias=False)
              (norm): LayerNorm((512,), eps=1e-05, elementwise_affine=True)
            )
          )
          (1): SwinStage(
            (blocks): ModuleList(
              (0-1): 2 x SwinLayer(
                (layernorm_before): LayerNorm((256,), eps=1e-05, elementwise_affine=True)
                (attention): SwinAttention(
                  (self): SwinSelfAttention(
                    (query): Linear(in_features=256, out_features=256, bias=True)
                    (key): Linear(in_features=256, out_features=256, bias=True)
                    (value): Linear(in_features=256, out_features=256, bias=True)
                    (dropout): Dropout(p=0.0, inplace=False)
                  )
                  (output): SwinSelfOutput(
                    (dense): Linear(in_features=256, out_features=256, bias=True)
                    (dropout): Dropout(p=0.0, inplace=False)
                  )
                )
                (drop_path): SwinDropPath(p=0.1)
                (layernorm_after): LayerNorm((256,), eps=1e-05, elementwise_affine=True)
                (intermediate): SwinIntermediate(
                  (dense): Linear(in_features=256, out_features=1024, bias=True)
                  (intermediate_act_fn): GELUActivation()
                )
                (output): SwinOutput(
                  (dense): Linear(in_features=1024, out_features=256, bias=True)
                  (dropout): Dropout(p=0.0, inplace=False)
                )
              )
            )
            (downsample): SwinPatchMerging(
              (reduction): Linear(in_features=1024, out_features=512, bias=False)
              (norm): LayerNorm((1024,), eps=1e-05, elementwise_affine=True)
            )
          )
          (2): SwinStage(
            (blocks): ModuleList(
              (0-17): 18 x SwinLayer(
                (layernorm_before): LayerNorm((512,), eps=1e-05, elementwise_affine=True)
                (attention): SwinAttention(
                  (self): SwinSelfAttention(
                    (query): Linear(in_features=512, out_features=512, bias=True)
                    (key): Linear(in_features=512, out_features=512, bias=True)
                    (value): Linear(in_features=512, out_features=512, bias=True)
                    (dropout): Dropout(p=0.0, inplace=False)
                  )
                  (output): SwinSelfOutput(
                    (dense): Linear(in_features=512, out_features=512, bias=True)
                    (dropout): Dropout(p=0.0, inplace=False)
                  )
                )
                (drop_path): SwinDropPath(p=0.1)
                (layernorm_after): LayerNorm((512,), eps=1e-05, elementwise_affine=True)
                (intermediate): SwinIntermediate(
                  (dense): Linear(in_features=512, out_features=2048, bias=True)
                  (intermediate_act_fn): GELUActivation()
                )
                (output): SwinOutput(
                  (dense): Linear(in_features=2048, out_features=512, bias=True)
                  (dropout): Dropout(p=0.0, inplace=False)
                )
              )
            )
            (downsample): SwinPatchMerging(
              (reduction): Linear(in_features=2048, out_features=1024, bias=False)
              (norm): LayerNorm((2048,), eps=1e-05, elementwise_affine=True)
            )
          )
          (3): SwinStage(
            (blocks): ModuleList(
              (0-1): 2 x SwinLayer(
                (layernorm_before): LayerNorm((1024,), eps=1e-05, elementwise_affine=True)
                (attention): SwinAttention(
                  (self): SwinSelfAttention(
                    (query): Linear(in_features=1024, out_features=1024, bias=True)
                    (key): Linear(in_features=1024, out_features=1024, bias=True)
                    (value): Linear(in_features=1024, out_features=1024, bias=True)
                    (dropout): Dropout(p=0.0, inplace=False)
                  )
                  (output): SwinSelfOutput(
                    (dense): Linear(in_features=1024, out_features=1024, bias=True)
                    (dropout): Dropout(p=0.0, inplace=False)
                  )
                )
                (drop_path): SwinDropPath(p=0.1)
                (layernorm_after): LayerNorm((1024,), eps=1e-05, elementwise_affine=True)
                (intermediate): SwinIntermediate(
                  (dense): Linear(in_features=1024, out_features=4096, bias=True)
                  (intermediate_act_fn): GELUActivation()
                )
                (output): SwinOutput(
                  (dense): Linear(in_features=4096, out_features=1024, bias=True)
                  (dropout): Dropout(p=0.0, inplace=False)
                )
              )
            )
          )
        )
      )
      (layernorm): LayerNorm((1024,), eps=1e-05, elementwise_affine=True)
      (pooler): AdaptiveAvgPool1d(output_size=1)
    )
    (classifier): Identity()
    (pooler): AdaptiveAvgPool1d(output_size=1)
  )
  (predictor): Linear(in_features=1024, out_features=100, bias=True)
  (embedder): Embeddings2D(
    (resize): Resize(size=(224, 224), interpolation=bilinear, max_size=None, antialias=warn)
    (projection): Conv2d(3, 128, kernel_size=(4, 4), stride=(4, 4))
    (norm): LayerNorm((128,), eps=1e-05, elementwise_affine=True)
  )
)

------- Start Training --------
epoch:  0
/home/aryas/miniconda3/envs/myenv/lib/python3.9/site-packages/torch/optim/lr_scheduler.py:139: UserWarning: Detected call of `lr_scheduler.step()` before `optimizer.step()`. In PyTorch 1.1.0 and later, you should call them in the opposite order: `optimizer.step()` before `lr_scheduler.step()`.  Failure to do this will result in PyTorch skipping the first value of the learning rate schedule. See more details at https://pytorch.org/docs/stable/optim.html#how-to-adjust-learning-rate
…
