…
dder.position_embeddings.weight	embedder.projection.weight	embedder.projection.bias	predictor.weight	predictor.bias

------- Experiment Summary --------
id: 0
dataset: DEEPSEA 	batch size: 16 	lr: 1e-05
num train batch: 4641 	num validation batch: 9313 	num test batch: 9313
finetune method: all
param count: 85485348 85485348
wrapper1D(
  (model): RobertaModel(
    (embeddings): embedder_placeholder()
    (encoder): RobertaEncoder(
      (layer): ModuleList(
        (0-11): 12 x RobertaLayer(
          (attention): RobertaAttention(
            (self): RobertaSelfAttention(
              (query): Linear(in_features=768, out_features=768, bias=True)
              (key): Linear(in_features=768, out_features=768, bias=True)
              (value): Linear(in_features=768, out_features=768, bias=True)
              (dropout): Dropout(p=0, inplace=False)
            )
            (output): RobertaSelfOutput(
              (dense): Linear(in_features=768, out_features=768, bias=True)
              (LayerNorm): LayerNorm((768,), eps=1e-05, elementwise_affine=True)
              (dropout): Dropout(p=0, inplace=False)
            )
          )
          (intermediate): RobertaIntermediate(
            (dense): Linear(in_features=768, out_features=3072, bias=True)
            (intermediate_act_fn): GELUActivation()
          )
          (output): RobertaOutput(
            (dense): Linear(in_features=3072, out_features=768, bias=True)
            (LayerNorm): LayerNorm((768,), eps=1e-05, elementwise_affine=True)
            (dropout): Dropout(p=0, inplace=False)
          )
        )
      )
    )
    (pooler): adaptive_pooler(
      (pooler): AdaptiveAvgPool1d(output_size=1)
    )
  )
  (embedder): Embeddings1D(
    (norm): LayerNorm((768,), eps=1e-05, elementwise_affine=True)
    (position_embeddings): Embedding(514, 768, padding_idx=1)
    (projection): Conv1d(4, 768, kernel_size=(2,), stride=(2,))
  )
  (predictor): Linear(in_features=768, out_features=36, bias=True)
)

------- Resume Training --------
[train full 8 0.000009 ] time elapsed: 1566.4172 	train loss: 0.8101 	val loss: 0.8086 	val score: 0.3424 	best val score: 0.3419
[train full 9 0.000010 ] time elapsed: 1563.6579 	train loss: 0.8083 	val loss: 0.8087 	val score: 0.3423 	best val score: 0.3419
[train full 10 0.000009 ] time elapsed: 1561.3205 	train loss: 0.8042 	val loss: 0.8084 	val score: 0.3386 	best val score: 0.3386
…
