…
on_embeddings.weight	embedder.projection.weight	embedder.projection.bias	predictor.weight	predictor.bias
using cuda

------- Experiment Summary --------
id: 1
dataset: DEEPSEA 	batch size: 16 	lr: 1e-05
num train batch: 4641 	num validation batch: 9313 	num test batch: 9313
finetune method: all
param count: 85485348 85485348
wrapper1D(
  (model): RobertaModel(
    (embeddings): embedder_placeholder()
    (encoder): RobertaEncoder(
      (layer): ModuleList(
        (0-11): 12 x RobertaLayer(
          (attention): RobertaAttention(
            (self): RobertaSelfAttention(
              (query): Linear(in_features=768, out_features=768, bias=True)
              (key): Linear(in_features=768, out_features=768, bias=True)
              (value): Linear(in_features=768, out_features=768, bias=True)
              (dropout): Dropout(p=0, inplace=False)
            )
            (output): RobertaSelfOutput(
              (dense): Linear(in_features=768, out_features=768, bias=True)
              (LayerNorm): LayerNorm((768,), eps=1e-05, elementwise_affine=True)
              (dropout): Dropout(p=0, inplace=False)
            )
          )
          (intermediate): RobertaIntermediate(
            (dense): Linear(in_features=768, out_features=3072, bias=True)
            (intermediate_act_fn): GELUActivation()
          )
          (output): RobertaOutput(
            (dense): Linear(in_features=3072, out_features=768, bias=True)
            (LayerNorm): LayerNorm((768,), eps=1e-05, elementwise_affine=True)
            (dropout): Dropout(p=0, inplace=False)
          )
        )
      )
    )
    (pooler): adaptive_pooler(
      (pooler): AdaptiveAvgPool1d(output_size=1)
    )
  )
  (embedder): Embeddings1D(
    (norm): LayerNorm((768,), eps=1e-05, elementwise_affine=True)
    (position_embeddings): Embedding(514, 768, padding_idx=1)
    (projection): Conv1d(4, 768, kernel_size=(2,), stride=(2,))
  )
  (predictor): Linear(in_features=768, out_features=36, bias=True)
)

------- Start Training --------
epoch:  0
/home/aryas/miniconda3/envs/myenv/lib/python3.9/site-packages/torch/utils/data/dataloader.py:560: UserWarning: This DataLoader will create 4 worker processes in total. Our suggested max number of worker in current system is 3, which is smaller than what this DataLoader is going to create. Please be aware that excessive worker creation might get DataLoader running slow or even freeze, lower the worker number to avoid potential slowness/freeze if necessary.
…
