…
ion_embeddings.weight	embedder.projection.weight	embedder.projection.bias	predictor.weight	predictor.bias
using cuda

------- Experiment Summary --------
id: 10
dataset: DEEPSEA 	batch size: 16 	lr: 1e-05
num train batch: 4641 	num validation batch: 9313 	num test batch: 9313
finetune method: all
param count: 42958116 42958116
wrapper1D(
  (model): RobertaModel(
    (embeddings): embedder_placeholder()
    (encoder): RobertaEncoder(
      (layer): ModuleList(
        (0-5): 6 x RobertaLayer(
          (attention): RobertaAttention(
            (self): RobertaSelfAttention(
              (query): Linear(in_features=768, out_features=768, bias=True)
              (key): Linear(in_features=768, out_features=768, bias=True)
              (value): Linear(in_features=768, out_features=768, bias=True)
              (dropout): Dropout(p=0, inplace=False)
            )
            (output): RobertaSelfOutput(
              (dense): Linear(in_features=768, out_features=768, bias=True)
              (LayerNorm): LayerNorm((768,), eps=1e-05, elementwise_affine=True)
              (dropout): Dropout(p=0, inplace=False)
            )
          )
          (intermediate): RobertaIntermediate(
            (dense): Linear(in_features=768, out_features=3072, bias=True)
            (intermediate_act_fn): GELUActivation()
          )
          (output): RobertaOutput(
            (dense): Linear(in_features=3072, out_features=768, bias=True)
            (LayerNorm): LayerNorm((768,), eps=1e-05, elementwise_affine=True)
            (dropout): Dropout(p=0, inplace=False)
          )
        )
      )
    )
    (pooler): adaptive_pooler(
      (pooler): AdaptiveAvgPool1d(output_size=1)
    )
  )
  (embedder): Embeddings1D(
    (norm): LayerNorm((768,), eps=1e-05, elementwise_affine=True)
    (position_embeddings): Embedding(514, 768, padding_idx=1)
    (projection): Conv1d(4, 768, kernel_size=(2,), stride=(2,))
  )
  (predictor): Linear(in_features=768, out_features=36, bias=True)
)

------- Start Training --------
epoch:  0
[train full 0 0.000001 ] time elapsed: 793.0654 	train loss: 0.8679 	val loss: 0.8226 	val score: 0.3784 	best val score: 0.3784
epoch:  1
[train full 1 0.000002 ] time elapsed: 790.5954 	train loss: 0.8294 	val loss: 0.8184 	val score: 0.3642 	best val score: 0.3642
epoch:  2
[train full 2 0.000003 ] time elapsed: 791.4273 	train loss: 0.8220 	val loss: 0.8079 	val score: 0.3490 	best val score: 0.3490
…
