…
position_embeddings.weight	embedder.projection.weight	embedder.projection.bias	predictor.weight	predictor.bias
using cuda

------- Experiment Summary --------
id: 0
dataset: ECG 	batch size: 4 	lr: 1e-06
num train batch: 74011 	num validation batch: 8118 	num test batch: 8118
finetune method: all
param count: 42942724 42942724
wrapper1D(
  (model): RobertaModel(
    (embeddings): embedder_placeholder()
    (encoder): RobertaEncoder(
      (layer): ModuleList(
        (0-5): 6 x RobertaLayer(
          (attention): RobertaAttention(
            (self): RobertaSelfAttention(
              (query): Linear(in_features=768, out_features=768, bias=True)
              (key): Linear(in_features=768, out_features=768, bias=True)
              (value): Linear(in_features=768, out_features=768, bias=True)
              (dropout): Dropout(p=0, inplace=False)
            )
            (output): RobertaSelfOutput(
              (dense): Linear(in_features=768, out_features=768, bias=True)
              (LayerNorm): LayerNorm((768,), eps=1e-05, elementwise_affine=True)
              (dropout): Dropout(p=0, inplace=False)
            )
          )
          (intermediate): RobertaIntermediate(
            (dense): Linear(in_features=768, out_features=3072, bias=True)
            (intermediate_act_fn): GELUActivation()
          )
          (output): RobertaOutput(
            (dense): Linear(in_features=3072, out_features=768, bias=True)
            (LayerNorm): LayerNorm((768,), eps=1e-05, elementwise_affine=True)
            (dropout): Dropout(p=0, inplace=False)
          )
        )
      )
    )
    (pooler): adaptive_pooler(
      (pooler): AdaptiveAvgPool1d(output_size=1)
    )
  )
  (embedder): Embeddings1D(
    (norm): LayerNorm((768,), eps=1e-05, elementwise_affine=True)
    (position_embeddings): Embedding(514, 768, padding_idx=1)
    (projection): Conv1d(1, 768, kernel_size=(20,), stride=(20,))
  )
  (predictor): Linear(in_features=768, out_features=4, bias=True)
)

------- Start Training --------
epoch:  0
/home/aryas/miniconda3/envs/myenv/lib/python3.9/site-packages/torch/optim/lr_scheduler.py:139: UserWarning: Detected call of `lr_scheduler.step()` before `optimizer.step()`. In PyTorch 1.1.0 and later, you should call them in the opposite order: `optimizer.step()` before `lr_scheduler.step()`.  Failure to do this will result in PyTorch skipping the first value of the learning rate schedule. See more details at https://pytorch.org/docs/stable/optim.html#how-to-adjust-learning-rate
…
